…
2025-01-16 02:44:17.486889: I tensorflow/core/common_runtime/gpu/gpu_device.cc:2021] Created device /job:localhost/replica:0/task:0/device:GPU:0 with 38554 MB memory:  -> device: 0, name: NVIDIA A100-SXM4-40GB, pci bus id: 0000:00:04.0, compute capability: 8.0
2025-01-16 02:44:17,513 - __main__ - INFO - 構建模型...
2025-01-16 02:44:18,835 - __main__ - INFO - 編譯模型...
2025-01-16 02:44:18,843 - __main__ - INFO - 
=== 模型架構 ===
2025-01-16 02:44:18,854 - __main__ - INFO - Model: "functional"
┏━━━━━━━━━━━━━━━━━━━━━━━━━━━━━━━━━━━━━━┳━━━━━━━━━━━━━━━━━━━━━━━━━━━━━┳━━━━━━━━━━━━━━━━━┓
┃ Layer (type)                         ┃ Output Shape                ┃         Param # ┃
┡━━━━━━━━━━━━━━━━━━━━━━━━━━━━━━━━━━━━━━╇━━━━━━━━━━━━━━━━━━━━━━━━━━━━━╇━━━━━━━━━━━━━━━━━┩
│ input_layer (InputLayer)             │ (None, 2000, 512)           │               0 │
├──────────────────────────────────────┼─────────────────────────────┼─────────────────┤
│ conv1d (Conv1D)                      │ (None, 2000, 32)            │          81,952 │
├──────────────────────────────────────┼─────────────────────────────┼─────────────────┤
│ batch_normalization                  │ (None, 2000, 32)            │             128 │
│ (BatchNormalization)                 │                             │                 │
├──────────────────────────────────────┼─────────────────────────────┼─────────────────┤
│ activation (Activation)              │ (None, 2000, 32)            │               0 │
├──────────────────────────────────────┼─────────────────────────────┼─────────────────┤
│ max_pooling1d (MaxPooling1D)         │ (None, 500, 32)             │               0 │
├──────────────────────────────────────┼─────────────────────────────┼─────────────────┤
│ conv1d_1 (Conv1D)                    │ (None, 500, 64)             │          10,304 │
├──────────────────────────────────────┼─────────────────────────────┼─────────────────┤
│ batch_normalization_1                │ (None, 500, 64)             │             256 │
│ (BatchNormalization)                 │                             │                 │
├──────────────────────────────────────┼─────────────────────────────┼─────────────────┤
│ activation_1 (Activation)            │ (None, 500, 64)             │               0 │
├──────────────────────────────────────┼─────────────────────────────┼─────────────────┤
│ max_pooling1d_1 (MaxPooling1D)       │ (None, 125, 64)             │               0 │
├──────────────────────────────────────┼─────────────────────────────┼─────────────────┤
│ conv1d_2 (Conv1D)                    │ (None, 125, 128)            │          41,088 │
├──────────────────────────────────────┼─────────────────────────────┼─────────────────┤
│ batch_normalization_2                │ (None, 125, 128)            │             512 │
│ (BatchNormalization)                 │                             │                 │
├──────────────────────────────────────┼─────────────────────────────┼─────────────────┤
│ activation_2 (Activation)            │ (None, 125, 128)            │               0 │
├──────────────────────────────────────┼─────────────────────────────┼─────────────────┤
│ max_pooling1d_2 (MaxPooling1D)       │ (None, 31, 128)             │               0 │
├──────────────────────────────────────┼─────────────────────────────┼─────────────────┤
│ global_average_pooling1d             │ (None, 128)                 │               0 │
│ (GlobalAveragePooling1D)             │                             │                 │
├──────────────────────────────────────┼─────────────────────────────┼─────────────────┤
│ dropout (Dropout)                    │ (None, 128)                 │               0 │
├──────────────────────────────────────┼─────────────────────────────┼─────────────────┤
│ dense (Dense)                        │ (None, 4)                   │             516 │
└──────────────────────────────────────┴─────────────────────────────┴─────────────────┘
 Total params: 134,756 (526.39 KB)
 Trainable params: 134,308 (524.64 KB)
 Non-trainable params: 448 (1.75 KB)

2025-01-16 02:44:18,854 - __main__ - INFO - ==================

2025-01-16 02:44:19,472 - __main__ - INFO - 開始訓練模型... (批次大小: 128)
Epoch 1/30
WARNING: All log messages before absl::InitializeLog() is called are written to STDERR
…
